Homework/HW1_Regression/models/model.ckpt (torch, 10548 bytes, 5 tensors)

layers.0.weight f4 [16, 117]
000000 bd d4 8e be 29 0d b3 3d 85 07 7b 3d 9f 81 49 bb
       -0.2789668 0.087427445 0.061286468 -0.0030747426
000010 61 b0 a1 3d 35 de 98 3c 41 78 b3 bc 6f 65 0b 3d
       0.0789497 0.018660644 -0.021907927 0.03403228
000020 76 05 2e 3d ab 02 57 3c 92 65 91 bc ba bc 86 bc
       0.042485677 0.013123195 -0.017748628 -0.016447414
000030 d3 c3 87 bc f7 d6 6a bc d1 61 a9 3c 98 3e 5a 3c
       -0.016572868 -0.014333478 0.020676525 0.013320588
000040 14 98 45 3d 74 4d ac 3c e0 f0 b7 3d 3a e9 88 3d
       0.048240736 0.021033026 0.0898149 0.066851094
000050 73 03 8a 3d 81 f4 6c bd 95 b5 85 3d 39 a9 96 3d
       0.06738939 -0.057850365 0.06528775 0.073564954
000060 70 0b 78 3d 22 36 2d bd 87 3b 52 3d ac 17 91 3d
       0.060557783 -0.042287953 0.0513263 0.07084593
000070 19 db b6 bd 68 1c 84 3d 20 45 63 3d 3e 53 a7 bd
       -0.08928508 0.064507306 0.055485845 -0.08170174
000080 f1 74 46 bc 03 01 ed bc 85 42 6e bc 64 3d 20 3d
       -0.012112842 -0.028931146 -0.014542227 0.039121047
000090 2d 28 bf bc 13 7f 92 bd 52 eb 1a 3d 76 f4 4e 3d
       -0.023334587 -0.07153144 0.037822075 0.050526105
0000a0 5c 78 8d bc 64 53 b6 3d 2f 8e f1 bc b8 51 8e bd
       -0.017269306 0.08902624 -0.029486744 -0.0694918
0000b0 70 ac 93 bd 56 34 a9 bd 15 fd 7d 3d 61 e6 02 bd
       -0.07210624 -0.082619354 0.062008936 -0.031957988
0000c0 e1 ae 0a 3d 80 92 86 bd 17 b5 86 bd ea 63 89 3d
       0.033858184 -0.065709114 -0.06577509 0.0670851
0000d0 4f 29 02 3d a4 01 21 bd 21 4f 44 3d 16 33 5a bd
       0.031777676 -0.039308205 0.047927026 -0.053271376
0000e0 59 f2 0e bc 10 e1 87 bd 75 69 45 3c 91 0f 7b bc
       -0.008724772 -0.06634724 0.012049069 -0.015323536
0000f0 74 cb 94 bd d4 66 a7 bd 6d 1e 01 bd 84 4e 34 3c
       -0.07265368 -0.0817391 -0.031523157 0.011005048
000100 07 80 3a bd a1 db 8b bd f9 32 41 3d 19 26 9f 3c
       -0.045532253 -0.06829 0.047167752 0.019427346
000110 df a6 ad 3d c2 3e 95 3d 00 c8 28 3d 1b c4 69 3d
       0.08479094 0.07287361 0.04120636 0.057071786
000120 7b 57 99 bd 90 a3 61 bd 9b db 51 3d bf 3e b2 3d
       -0.07487389 -0.055087626 0.051234823 0.08703374
000130 c1 8c 6f 3d ad d1 30 bd 4c 21 77 3d e7 4d ca bd
       0.058483843 -0.043168712 0.06033449 -0.0987814
000140 44 a3 fe 3c 17 7c a5 bc fc a5 6a 3d 00 e9 a8 3d
       0.03108371 -0.020200772 0.0572872 0.08247566
000150 0c 8b aa 3d 76 f5 b0 3d 85 c8 5e 3d c3 ac c9 bc
       0.08327302 0.08640568 0.05439045 -0.024618512
000160 eb f4 a3 bb 8a 5b ac bc 5a 88 53 3d 4e 5e 96 3a
       -0.0050035617 -0.021039743 0.051643707 0.0011472197
000170 a6 20 50 bd f3 92 49 bd 89 90 92 bc c9 9c f2 3c
       -0.050812386 -0.049212407 -0.017891185 0.029615777
000180 e8 9e 91 3d a4 5c 36 3c d4 2d 89 bd 18 cd 45 3d
       0.07110387 0.011130486 -0.06698194 0.048291296
000190 a4 73 4c bd f8 6f 53 3d fb 95 4a 3d 34 c1 c5 3b
       -0.04991497 0.051620454 0.04945944 0.0060349945
0001a0 a5 3a f6 bb 2b 99 af 3c e2 ff 0c 3d 31 c1 94 3d
       -0.007514315 0.02143534 0.034423716 0.07263411
0001b0 1d 63 2d bd bc 1a 7a 3d 15 5f 85 3a 56 f6 90 3c
       -0.04233085 0.061060652 0.0010175431 0.017695587
0001c0 e7 c5 8d bd 98 7d fd 3b 20 a3 a9 3d af 88 2a 3d
       -0.069225125 0.007735919 0.08283067 0.041634258
0001d0 da 8e 2c bb 29 91 0a 3c 9b 97 e7 3c 10 c7 77 3d
       -0.0026330263 0.00845746 0.028270533 0.060492575
0001e0 9d d1 d1 3d 8e 76 33 bc cb e8 76 3c e1 e4 23 bc
       0.10245059 -0.010953559 0.015070151 -0.010003299
0001f0 79 15 2d 3d b1 08 2f bd 86 20 6d 3d 96 44 3c 3c
       0.042256806 -0.0427329 0.057892345 0.011490962
000200 f8 50 be bb f9 f7 b4 3c fe 89 9e 3d c6 d2 1c bd
       -0.005807992 0.022090899 0.07741164 -0.038286947
000210 47 34 c2 bd 6c 4b a4 bb cf f2 96 bd 0a e5 6b 3d
       -0.09482627 -0.005013874 -0.07370531 0.057591476
000220 28 37 c1 3d 4d c4 9f 3c e8 9a d4 3d f3 95 8b 3d
       0.09434348 0.019502783 0.103811085 0.0681571
000230 59 22 f3 bc f2 17 ab 3d 89 b2 b1 bd 33 25 9c bd
       -0.029679464 0.083541766 -0.08676631 -0.07624283
000240 7c 8b 40 bd ed e1 01 bd f6 fc 55 3c ff ad 00 3d
       -0.047008023 -0.0317096 0.013060799 0.031415936
000250 a0 ed c2 3d ce 76 df bb b3 bd 61 bd 32 07 a2 3c
       0.095179796 -0.0068195825 -0.055112552 0.019778822
000260 b4 ad b0 3b 54 fd 7d bd c3 44 89 bb 1c 25 f3 bc
       0.005391801 -0.06200917 -0.0041891052 -0.029680781
000270 1e 80 62 3d 84 f9 43 3d 0b 29 e2 3c 1d fb e3 3c
       0.055297963 0.04784538 0.027607461 0.027829701
000280 1b 03 60 bc ec 7b 0b 3d 30 1b 9d 3b 35 ce 92 3c
       -0.013672615 0.034053728 0.004794501 0.017920593
000290 63 e4 6f bd e8 93 e6 bb 3c 06 f7 bb bb 6a 81 3d
       -0.058567416 -0.007036675 -0.007538585 0.06319185
0002a0 be fc a2 bd c6 8f 52 bd 18 73 90 3d bb 2f dc bc
       -0.07958363 -0.051406644 0.070532024 -0.026878228
0002b0 67 74 e8 bc 3f cd ef bc ba 67 e8 3b c2 25 5c 3d
       -0.028375817 -0.029272674 0.0070924433 0.053746946
0002c0 67 8e a2 3d 5c c1 64 3c 93 d3 6d bc 94 03 c3 bc
       0.07937317 0.013962116 -0.014515775 -0.023805417
0002d0 43 31 32 3d f4 3c 7f 3c 57 c1 57 3b 90 44 34 bd
       0.04350401 0.015578497 0.0032921636 -0.0440107
0002e0 88 9c 28 bd 11 5e 8c bc ff 97 ac 3e ad 96 56 bd
       -0.041164905 -0.017134698 0.33709714 -0.05238979
0002f0 f1 d7 97 bc e7 63 92 3b a1 b4 20 bd 22 2d 7f 3d
       -0.018535586 0.0044674757 -0.03923476 0.0622989
000300 a8 f0 f6 bc 1d e4 75 bd 21 00 20 3d 1c 6f c7 3c
       -0.03014405 -0.060032 0.039062623 0.024344973
000310 e5 b1 1d bd 9a 0f d5 bc fc 0a aa 3c 1f 6a cf 3c
       -0.03849973 -0.026008416 0.02075719 0.025319157
000320 8e 18 7f 3d 0e fd 00 3d dd f4 25 3f 36 3d 53 3c
       0.062279277 0.03149133 0.64826757 0.012893012
000330 12 df 19 3c 4d 7d d8 bb 6d 36 e7 3d 9f 59 0c 3d
       0.009391563 -0.006606734 0.11289678 0.034265157
000340 49 58 70 3a ea 7f 36 3d 4e d8 a9 bd e7 28 9d 3d
       0.0009168429 0.044555582 -0.0829321 0.07673817
000350 55 fd 5b bd a3 d7 7a bd 4f d0 aa bd da f1 3c 3d
       -0.053708393 -0.061240803 -0.08340513 0.046129085
000360 50 fe 03 bc 45 b2 ef bd f9 db 73 3f 72 0a 37 3d
       -0.008056238 -0.11703924 0.95257527 0.044687696
000370 2d 08 b9 3d 83 4b 21 3e dc 0e 92 3d 18 e7 04 3c
       0.090347625 0.15751462 0.071317405 0.008111738
000380 6b 34 5e bd 18 7c a8 3c 8d 66 c9 3c 79 60 a1 bd
       -0.05424921 0.020566985 0.024585033 -0.07879729
000390 12 8e 2f 3d 4f 97 7f 3d 44 74 f2 bb 0b 3f 47 3c
       0.0428601 0.06240016 -0.007399114 0.012161027
0003a0 ff c0 c6 bd a9 2c cd bb b6 7f 52 bd c9 d8 a6 bd
       -0.0970478 -0.0062614274 -0.051391326 -0.08146817
0003b0 a7 b0 82 bc cd e6 f3 bc 46 f9 3c 3d 83 c6 95 3d
       -0.015953375 -0.02977314 0.046136163 0.07313254
0003c0 24 aa 90 3d 1b 02 91 38 ae 9b 0a bd 74 bc 52 3d
       0.07063702 6.914531e-05 -0.033839874 0.051449254
0003d0 da 10 9b bd 4c 1c b2 3b 9d 0e 71 bd 59 12 b3 3b
       -0.075715736 0.005435502 -0.058851827 0.0054648337
0003e0 fd bc 71 bd ee c0 39 bc 04 f8 23 bd 78 ca 46 3a
       -0.059018124 -0.011337502 -0.040031448 0.0007583271
0003f0 4b 21 74 3b e8 86 92 bd 36 77 40 3d 49 56 9d 3d
       0.003725129 -0.071546376 0.04698869 0.07682473

layers.0.bias f4 [16]
000000 66 97 a2 3c 3f b8 84 3d ce d4 a8 bd 35 89 5a bd
       0.019847583 0.06480455 -0.08243714 -0.053353507
000010 05 75 6e bc 3f 73 b6 bd a3 9f b1 bd 08 20 8f bd
       -0.014554267 -0.089087 -0.086730264 -0.06988531
000020 f9 f3 74 3d 20 17 4b bc 28 65 a9 bd bb 75 74 bd
       0.059802983 -0.01239565 -0.08271247 -0.05968259
000030 72 fe 3f 3d 41 3c 57 3d 32 88 83 3d b8 a2 f2 bc
       0.046873517 0.052547697 0.064224616 -0.029618606

layers.2.weight f4 [8, 16]
000000 9f 11 52 3d 82 53 7f 3d db c9 b8 bd ce 97 58 bd
       0.051286336 0.0623355 -0.09022876 -0.052879147
000010 36 9e 54 3d 04 5c 2c 3e 33 68 ad bd e2 c4 0f 3e
       0.051908694 0.16831976 -0.0846714 0.14039949
000020 f8 45 90 3d 36 e2 48 be bc 0e e8 3d fb 51 85 be
       0.070445955 -0.19617543 0.11330935 -0.2603911
000030 96 1c 18 be ed df 7c bd 82 0c e5 bd 48 aa 71 3d
       -0.14854655 -0.06173699 -0.11184026 0.059000283
000040 36 d4 30 bd 06 3b 06 3c 88 2b 4b 3e 46 2e 74 3e
       -0.04317113 0.008192783 0.19840825 0.23845777
000050 c5 87 73 3d 9d a4 3a 3e cc 45 2d 3e a1 5c 48 be
       0.05945565 0.18226857 0.16921157 -0.19566585
000060 31 80 8e bd a8 21 ef bd e8 f5 0d 3e b6 f5 bb bd
       -0.06958044 -0.11676341 0.13863337 -0.09177725
000070 40 9b b6 bb 7c c4 1a 3c d2 52 5d bd 3b c2 19 3e
       -0.0055727065 0.00944626 -0.05403406 0.150155
000080 59 46 43 3e 9e 3f 40 bd 6c 8e 48 3d 15 22 18 be
       0.19069804 -0.04693567 0.04896395 -0.14856751
000090 17 48 20 3d e1 60 fa 3d 3a 6c 5b be 9c 01 f0 3d
       0.03913125 0.122255094 -0.21428004 0.11719057
0000a0 84 62 e7 3d 78 fb 70 3d aa 33 79 3e 0f 57 df 3d
       0.11298087 0.05883357 0.24336115 0.10905277
0000b0 40 2f a6 bc 99 db 66 be de e7 23 be ff a6 55 3e
       -0.020286202 -0.22544707 -0.16006419 0.20864485
0000c0 7f f7 12 3e 02 79 6f 3e 20 fe a3 3d e5 c2 29 be
       0.14352225 0.23386005 0.08007455 -0.16578253
0000d0 c2 3d 41 3e 72 d3 91 bb 69 e7 a0 bd 8c 42 8b 3e
       0.18871215 -0.004450255 -0.07856638 0.2719921
0000e0 93 64 5b 3e e0 1b e6 3c 74 16 f9 3d 38 37 f3 bb
       0.21425085 0.028089464 0.12162486 -0.007422354
0000f0 84 24 a0 bd fc d2 71 3e a2 7e 90 bd e9 0e 9a 3e
       -0.07819465 0.2361564 -0.07055403 0.300895
000100 a9 c2 63 3d 25 bd d1 ba 13 5e bb 3b 27 54 63 3e
       0.055605564 -0.0016001804 0.0057180016 0.2220007
000110 31 72 4c be 51 b9 06 be 3e 28 8a 3d 06 8c 4c bd
       -0.19965436 -0.1315663 0.06745957 -0.049938224
000120 b1 de db bd 80 9e 13 3b 6c d6 34 be 65 7e 02 3e
       -0.107358344 0.0022524893 -0.1765992 0.12743528
000130 08 54 20 3d e4 c8 41 bd d2 ea 0b be 94 9a 46 be
       0.03914264 -0.047310725 -0.13663796 -0.19394904
000140 a8 62 62 be 5f a9 d6 3d d0 be 02 3e 92 a3 41 3e
       -0.22107947 0.10481524 0.12768102 0.18910053
000150 e2 63 26 3e ff 0e e2 3d 6c 8c fb 3d 61 5d a1 bd
       0.1624904 0.110380165 0.12282643 -0.07879139
000160 8d 41 14 be fc c9 1e be e6 c1 53 3e 82 7a 04 3e
       -0.1447813 -0.15506738 0.20679435 0.12937358
000170 88 02 17 bd a8 db 38 bc 5e c0 19 be c8 1e 32 3d
       -0.03686765 -0.011282839 -0.15014789 0.043486387
000180 c2 47 45 3e f5 f9 45 be 8f 1a 41 3e 5c 62 52 be
       0.19265655 -0.19333632 0.18857788 -0.20545334
000190 09 7d db 3d ac 2f 0d 3e 77 4e 27 be 0c d1 8c be
       0.10717208 0.13787717 -0.16338526 -0.2750324
0001a0 3e c3 43 bb a0 4e a3 bd a0 7f 1e bd ab 26 97 be
       -0.0029871012 -0.07973981 -0.03869593 -0.2952169
0001b0 56 38 7f 3e 0c ca 47 3e d6 b6 6a 3c 74 ef 7e bd
       0.24923834 0.19510669 0.014325818 -0.06224008
0001c0 23 bb 7a 3e 55 5b f9 3d 24 47 f1 bd 70 c1 de bd
       0.2448545 0.12175623 -0.11781147 -0.10876739
0001d0 7c c4 ec bd 22 37 88 bd 3a 07 3a be a8 17 49 3e
       -0.11560914 -0.06651141 -0.18166819 0.1963793
0001e0 33 96 97 bd 26 02 12 3e fe 1e 07 3e a8 63 3f 3d
       -0.07401695 0.14258632 0.13195416 0.0467259
0001f0 62 06 12 be 29 51 42 3e 82 92 8d 3e f5 be 88 bc
       -0.14260247 0.18976273 0.2765084 -0.016692618

layers.2.bias f4 [8]
000000 4f 3c 7a 3e 0a 00 e3 bd 91 58 5e 3e fb 42 6d 3e
       0.24437068 -0.11083992 0.21713473 0.23170082
000010 38 aa 57 3d db 1b 4b be 0d 8d 25 3e 2f 33 13 3e
       0.052652568 -0.19834845 0.16167088 0.14374994

layers.4.weight f4 [1, 8]
000000 d5 73 3a 3e 3f 3d 0b be cd 8b 9e 3d c7 e2 c1 3e
       0.18208249 -0.13597582 0.07741509 0.3786833
000010 cf c2 31 be d0 79 80 3c d2 81 1d be c5 f1 48 3e
       -0.1735947 0.015683085 -0.15381554 0.19623478
